Model: "sequential_4"
_________________________________________________________________
Layer (type)                 Output Shape              Param #   
=================================================================
rescaling_4 (Rescaling)      (None, 64, 64, 3)         0         
_________________________________________________________________
conv2d_12 (Conv2D)           (None, 64, 64, 16)        448       
_________________________________________________________________
max_pooling2d_12 (MaxPooling (None, 32, 32, 16)        0         
_________________________________________________________________
conv2d_13 (Conv2D)           (None, 32, 32, 32)        4640      
_________________________________________________________________
max_pooling2d_13 (MaxPooling (None, 16, 16, 32)        0         
_________________________________________________________________
conv2d_14 (Conv2D)           (None, 16, 16, 64)        18496     
_________________________________________________________________
max_pooling2d_14 (MaxPooling (None, 8, 8, 64)          0         
_________________________________________________________________
flatten_4 (Flatten)          (None, 4096)              0         
_________________________________________________________________
dense_8 (Dense)              (None, 256)               1048832   
_________________________________________________________________
dropout_4 (Dropout)          (None, 256)               0         
_________________________________________________________________
dense_9 (Dense)              (None, 98)                25186     
=================================================================
Total params: 1,097,602
Trainable params: 1,097,602
Non-trainable params: 0
_________________________________________________________________
