Model: "sequential_2"
_________________________________________________________________
Layer (type)                 Output Shape              Param #   
=================================================================
rescaling_2 (Rescaling)      (None, 64, 64, 3)         0         
_________________________________________________________________
conv2d_6 (Conv2D)            (None, 64, 64, 16)        448       
_________________________________________________________________
max_pooling2d_6 (MaxPooling2 (None, 32, 32, 16)        0         
_________________________________________________________________
conv2d_7 (Conv2D)            (None, 32, 32, 32)        4640      
_________________________________________________________________
max_pooling2d_7 (MaxPooling2 (None, 16, 16, 32)        0         
_________________________________________________________________
conv2d_8 (Conv2D)            (None, 16, 16, 64)        18496     
_________________________________________________________________
max_pooling2d_8 (MaxPooling2 (None, 8, 8, 64)          0         
_________________________________________________________________
flatten_2 (Flatten)          (None, 4096)              0         
_________________________________________________________________
dense_4 (Dense)              (None, 128)               524416    
_________________________________________________________________
dropout_2 (Dropout)          (None, 128)               0         
_________________________________________________________________
dense_5 (Dense)              (None, 98)                12642     
=================================================================
Total params: 560,642
Trainable params: 560,642
Non-trainable params: 0
_________________________________________________________________
