Model: "sequential_1"
_________________________________________________________________
Layer (type)                 Output Shape              Param #   
=================================================================
rescaling_1 (Rescaling)      (None, 64, 64, 3)         0         
_________________________________________________________________
conv2d_3 (Conv2D)            (None, 64, 64, 16)        448       
_________________________________________________________________
max_pooling2d_3 (MaxPooling2 (None, 32, 32, 16)        0         
_________________________________________________________________
conv2d_4 (Conv2D)            (None, 32, 32, 32)        4640      
_________________________________________________________________
max_pooling2d_4 (MaxPooling2 (None, 16, 16, 32)        0         
_________________________________________________________________
conv2d_5 (Conv2D)            (None, 16, 16, 64)        18496     
_________________________________________________________________
max_pooling2d_5 (MaxPooling2 (None, 8, 8, 64)          0         
_________________________________________________________________
flatten_1 (Flatten)          (None, 4096)              0         
_________________________________________________________________
dense_2 (Dense)              (None, 128)               524416    
_________________________________________________________________
dropout_1 (Dropout)          (None, 128)               0         
_________________________________________________________________
dense_3 (Dense)              (None, 98)                12642     
=================================================================
Total params: 560,642
Trainable params: 560,642
Non-trainable params: 0
_________________________________________________________________
