Model: "sequential_7"
_________________________________________________________________
Layer (type)                 Output Shape              Param #   
=================================================================
rescaling_7 (Rescaling)      (None, 64, 64, 3)         0         
_________________________________________________________________
conv2d_21 (Conv2D)           (None, 64, 64, 16)        448       
_________________________________________________________________
max_pooling2d_21 (MaxPooling (None, 32, 32, 16)        0         
_________________________________________________________________
conv2d_22 (Conv2D)           (None, 32, 32, 32)        4640      
_________________________________________________________________
max_pooling2d_22 (MaxPooling (None, 16, 16, 32)        0         
_________________________________________________________________
conv2d_23 (Conv2D)           (None, 16, 16, 64)        18496     
_________________________________________________________________
max_pooling2d_23 (MaxPooling (None, 8, 8, 64)          0         
_________________________________________________________________
flatten_7 (Flatten)          (None, 4096)              0         
_________________________________________________________________
dense_14 (Dense)             (None, 256)               1048832   
_________________________________________________________________
dropout_7 (Dropout)          (None, 256)               0         
_________________________________________________________________
dense_15 (Dense)             (None, 99)                25443     
=================================================================
Total params: 1,097,859
Trainable params: 1,097,859
Non-trainable params: 0
_________________________________________________________________
