Model: "sequential_6"
_________________________________________________________________
Layer (type)                 Output Shape              Param #   
=================================================================
rescaling_6 (Rescaling)      (None, 64, 64, 3)         0         
_________________________________________________________________
conv2d_18 (Conv2D)           (None, 64, 64, 16)        448       
_________________________________________________________________
max_pooling2d_18 (MaxPooling (None, 32, 32, 16)        0         
_________________________________________________________________
conv2d_19 (Conv2D)           (None, 32, 32, 32)        4640      
_________________________________________________________________
max_pooling2d_19 (MaxPooling (None, 16, 16, 32)        0         
_________________________________________________________________
conv2d_20 (Conv2D)           (None, 16, 16, 64)        18496     
_________________________________________________________________
max_pooling2d_20 (MaxPooling (None, 8, 8, 64)          0         
_________________________________________________________________
flatten_6 (Flatten)          (None, 4096)              0         
_________________________________________________________________
dense_12 (Dense)             (None, 256)               1048832   
_________________________________________________________________
dropout_6 (Dropout)          (None, 256)               0         
_________________________________________________________________
dense_13 (Dense)             (None, 99)                25443     
=================================================================
Total params: 1,097,859
Trainable params: 1,097,859
Non-trainable params: 0
_________________________________________________________________
