Model: "sequential"
_________________________________________________________________
Layer (type)                 Output Shape              Param #   
=================================================================
rescaling (Rescaling)        (None, 64, 64, 3)         0         
_________________________________________________________________
random_flip (RandomFlip)     (None, 64, 64, 3)         0         
_________________________________________________________________
random_rotation (RandomRotat (None, 64, 64, 3)         0         
_________________________________________________________________
conv2d (Conv2D)              (None, 64, 64, 16)        448       
_________________________________________________________________
max_pooling2d (MaxPooling2D) (None, 32, 32, 16)        0         
_________________________________________________________________
conv2d_1 (Conv2D)            (None, 32, 32, 32)        4640      
_________________________________________________________________
max_pooling2d_1 (MaxPooling2 (None, 16, 16, 32)        0         
_________________________________________________________________
conv2d_2 (Conv2D)            (None, 16, 16, 64)        18496     
_________________________________________________________________
max_pooling2d_2 (MaxPooling2 (None, 8, 8, 64)          0         
_________________________________________________________________
flatten (Flatten)            (None, 4096)              0         
_________________________________________________________________
dense (Dense)                (None, 128)               524416    
_________________________________________________________________
dropout (Dropout)            (None, 128)               0         
_________________________________________________________________
dense_1 (Dense)              (None, 99)                12771     
=================================================================
Total params: 560,771
Trainable params: 560,771
Non-trainable params: 0
_________________________________________________________________
