Model: "sequential_3"
_________________________________________________________________
Layer (type)                 Output Shape              Param #   
=================================================================
rescaling_3 (Rescaling)      (None, 64, 64, 3)         0         
_________________________________________________________________
random_flip_3 (RandomFlip)   (None, 64, 64, 3)         0         
_________________________________________________________________
random_rotation_3 (RandomRot (None, 64, 64, 3)         0         
_________________________________________________________________
conv2d_9 (Conv2D)            (None, 64, 64, 16)        448       
_________________________________________________________________
max_pooling2d_9 (MaxPooling2 (None, 32, 32, 16)        0         
_________________________________________________________________
conv2d_10 (Conv2D)           (None, 32, 32, 32)        4640      
_________________________________________________________________
max_pooling2d_10 (MaxPooling (None, 16, 16, 32)        0         
_________________________________________________________________
conv2d_11 (Conv2D)           (None, 16, 16, 64)        18496     
_________________________________________________________________
max_pooling2d_11 (MaxPooling (None, 8, 8, 64)          0         
_________________________________________________________________
flatten_3 (Flatten)          (None, 4096)              0         
_________________________________________________________________
dense_6 (Dense)              (None, 128)               524416    
_________________________________________________________________
dropout_3 (Dropout)          (None, 128)               0         
_________________________________________________________________
dense_7 (Dense)              (None, 99)                12771     
=================================================================
Total params: 560,771
Trainable params: 560,771
Non-trainable params: 0
_________________________________________________________________
